…
i":"https://localhost:8080/"},"id":"fvrEFDwnqdmf","executionInfo":{"status":"ok","timestamp":1684646258041,"user_tz":-420,"elapsed":461,"user":{"displayName":"Phat Dang","userId":"09734874479242939120"}},"outputId":"8a481aca-1a40-409b-c3e2-d5801afebb7c"},"execution_count":6,"outputs":[{"output_type":"stream","name":"stdout","text":["Model: \"sequential\"\n","_________________________________________________________________\n"," Layer (type)                Output Shape              Param #   \n","=================================================================\n"," conv2d (Conv2D)             (None, 200, 200, 32)      896       \n","                                                                 \n"," max_pooling2d (MaxPooling2D  (None, 100, 100, 32)     0         \n"," )                                                               \n","                                                                 \n"," conv2d_1 (Conv2D)           (None, 100, 100, 64)      18496     \n","                                                                 \n"," max_pooling2d_1 (MaxPooling  (None, 50, 50, 64)       0         \n"," 2D)                                                             \n","                                                                 \n"," conv2d_2 (Conv2D)           (None, 50, 50, 128)       73856     \n","                                                                 \n"," max_pooling2d_2 (MaxPooling  (None, 25, 25, 128)      0         \n"," 2D)                                                             \n","                                                                 \n"," dropout (Dropout)           (None, 25, 25, 128)       0         \n","                                                                 \n"," flatten (Flatten)           (None, 80000)             0         \n","                                                                 \n"," dense (Dense)               (None, 128)               10240128  \n","                                                                 \n"," dense_1 (Dense)             (None, 5)                 645       \n","                                                                 \n","=================================================================\n","Total params: 10,334,021\n","Trainable params: 10,334,021\n","Non-trainable params: 0\n","_________________________________________________________________\n"]}]},{"cell_type":"code","source":["from keras.losses import categorical_crossentropy\n","
…
